models/model.pth (torch, 44222 bytes, 6 tensors)

net.0.weight f4 [150, 3]
0	0xbebdb864	-0.3705474
1	0xbe0859db	-0.13315527
2	0xbe730e28	-0.23735869
3	0x3d788920	0.060677648
4	0x3ee843f4	0.45364344
5	0xbf12142e	-0.5706204
6	0xbe802f2a	-0.25035983
7	0xbed5cb61	-0.41756728
8	0xbf07091b	-0.5274827
9	0x3d13fad6	0.036127888
10	0xbd2d03ee	-0.042240076
11	0xbf0c988d	-0.54920274
12	0xbf0484be	-0.5176505
13	0x3d6f5f74	0.05844064
14	0xbec1fccf	-0.3788819
15	0x3eee1dab	0.4650701
16	0x3e798dd7	0.24370514
17	0x3ed66e39	0.41880968
18	0xbe11f7bb	-0.14254658
19	0x3e9f1b3e	0.31075472
20	0xbebd3b85	-0.36959472
21	0xbc7baf34	-0.015361596
22	0xbe4765d4	-0.19472438
23	0x3e8c8b33	0.2744995
24	0xbf1095cb	-0.56478566
25	0x3e70dc19	0.2352146
26	0x3ec983ad	0.39358273
27	0xbee8dd66	-0.45481414
28	0xbee4ad65	-0.4466354
29	0x3f2caeac	0.6745403
30	0x3f1bcbcb	0.6085784
31	0xbc396b90	-0.011317149
32	0x3d133244	0.03593661
33	0xbe55c0a4	-0.20874268
34	0xbe4fda38	-0.20298088
35	0x3e20d334	0.15705568
36	0x3ee1a841	0.4407368
37	0x3eabe218	0.33570933
38	0x3eef3597	0.46720573
39	0x3b048122	0.002021857
40	0x3e9ce8cd	0.30646363
41	0xbda5a5b8	-0.08088249
42	0xbf051fe3	-0.5200178
43	0xbec7bf4d	-0.39013138
44	0xbf110cb2	-0.56659997
45	0xbec4f3a1	-0.38467124
46	0x3ee2f58a	0.44327956
47	0x3e454437	0.19264303
48	0xbdc21c08	-0.09478003
49	0x3d79baef	0.06096929
50	0xbd6a7478	-0.05723998
51	0x3edb8d4b	0.42881235
52	0xbe95bc3a	-0.29245168
53	0x3e0a81b9	0.13526048
54	0x3d271186	0.040788196
55	0xbf173c06	-0.59075963
56	0xbee78402	-0.452179
57	0xbd695934	-0.056969836
58	0xbf0729cf	-0.5279817
59	0xbf00f100	-0.50367737
60	0x3f1132eb	0.5671832
61	0x3dab15c9	0.083537646
62	0xbd606ef9	-0.05479333
63	0x3eb0cce9	0.34531334
64	0x3efcd2d6	0.49379605
65	0xbee85c87	-0.45383093
66	0x3e8a834e	0.27053303
67	0x3f0694f0	0.5257101
68	0x3e572f0c	0.2101404
69	0xbe961e4d	-0.29319993
70	0xbeeaac2f	-0.4583449
71	0x3e7a0f4a	0.24419895
72	0xbe7ed5ec	-0.24886292
73	0x3daf2ae0	0.085531
74	0xbe12c785	-0.14333923
75	0x3ec2822a	0.37989932
76	0xbe3d6d63	-0.18498759
77	0xbe8cd7c0	-0.27508354
78	0xbe4c7759	-0.19967403
79	0xbdc59d46	-0.09649138
80	0xbed2c08f	-0.41162536
81	0xbe61459f	-0.21999215
82	0xbebad8fe	-0.36493677
83	0x3f031f73	0.5121986
84	0x3f05bc75	0.5224069
85	0x3ac8cbc2	0.0015319514
86	0x3ed05367	0.4068863
87	0xbdb46539	-0.08808369
88	0xbec8e280	-0.39235306
89	0x3edcde8a	0.43138534
90	0x3e6783ad	0.22608824
91	0x3d436a22	0.047708638
92	0x3d964c93	0.07338824
93	0x3ed6b919	0.41938093
94	0x3e21419b	0.15747683
95	0x3ebba5cd	0.36649933
96	0xbe44af77	-0.1920756
97	0x3d39233a	0.04519961
98	0xbcd265bc	-0.025683276
99	0x3ccb9924	0.024853297
100	0xbe025ec5	-0.12731464
101	0xbefc09de	-0.49226278
102	0xbe9f519a	-0.31116945
103	0x3eff285b	0.49835476
104	0x3d81d04d	0.06338558
105	0xbeb12a31	-0.34602502
106	0x3ea09a41	0.31367686
107	0x3e521786	0.20516786
108	0xbed66285	-0.4187204
109	0x3f0e7cd1	0.55659205
110	0x3f1990a0	0.59986305
111	0xbec6bebd	-0.38817397
112	0xbdb5f962	-0.088854566
113	0xbec39ea6	-0.38206977
114	0xbe223b25	-0.15842874
115	0x3ea4c8d0	0.32184458
116	0x3d7a1778	0.061057538
117	0xbef07b23	-0.46968946
118	0xbea8a78f	-0.32940337
119	0xbec0bf57	-0.3764598
120	0xbf19abab	-0.6002757
121	0x3e82b62e	0.25529617
122	0xbd4ac1f4	-0.049501374
123	0x3eb4a058	0.35278583
124	0x3da26edc	0.07931301
125	0xbf1380bf	-0.57618326
126	0x3e887fd8	0.26660037
127	0xbd6f9a6a	-0.05849687
128	0x3d89aa0a	0.067218855
129	0x3e1c59d4	0.15268642
130	0x3e636e53	0.22210054
131	0x3e87af31	0.26500848
132	0xbe1289c8	-0.14310372
133	0xbdff54ba	-0.12467332
134	0xbee29f10	-0.4426198
135	0xbf0e2f4b	-0.55540913
136	0x3ecb06a3	0.396535
137	0x3edde6e3	0.43340215
138	0xbe38626d	-0.18006296
139	0xbec2efc9	-0.38073567
140	0xbe8346b4	-0.2563988
141	0xbdb804c8	-0.08985287
142	0xbe3acfe5	-0.18243368
143	0xbe166ab0	-0.14689136
144	0xbe6d57fb	-0.23178093
145	0xbd7100ce	-0.058838658
146	0x3f097e06	0.5370792
147	0x3eb958e8	0.36200643
148	0x3ee49fab	0.44653067
149	0x3e350388	0.17677128
150	0x3f1107d1	0.5665255
151	0xbe73677e	-0.23769948
152	0xbdcce855	-0.10005251
153	0xbec943a2	-0.39309412
154	0x3ee21637	0.44157574
155	0x3f027989	0.509667
156	0x3db93a84	0.09044364
157	0xbe131d09	-0.14366545
158	0x3efa8c4f	0.48935172
159	0x3e129e1c	0.14318126
160	0x3e964d81	0.29356006
161	0xbf077813	-0.52917594
162	0xbd37146a	-0.044697203
163	0x3ee40295	0.4453322
164	0x3ec9d57f	0.39420697
165	0xbe0daca8	-0.13835394
166	0xbf04a9d6	-0.5182165
167	0xbefdf382	-0.49599844
168	0xbe2fe7d8	-0.17178285
169	0xbf193099	-0.5983978
170	0x3de7d591	0.113200314
171	0x3dffabb6	0.12483923
172	0xbe9ddf28	-0.30834317
173	0xbdcc9e7b	-0.09991165
174	0x3ef4ef43	0.47838792
175	0x3ed39d54	0.4133097
176	0xbef6d5dc	-0.48210037
177	0xbd151c75	-0.036404092
178	0xbe66cb66	-0.22538528
179	0xbf025de9	-0.50924546
180	0x3ecb081a	0.39654619
181	0x3e8d3e89	0.27586773
182	0x3e5e3b96	0.21702418
183	0x3f07dcfe	0.5307158
184	0xbf0d1858	-0.5511527
185	0xbe1c4f91	-0.15264727
186	0xbecb21ee	-0.39674324
187	0x3eb4c8d4	0.3530947
188	0xbea6bd00	-0.3256607
189	0x3eaee692	0.34160286
190	0xbe601c5d	-0.2188582
191	0x3eb1392d	0.34613934
192	0x3f0f94b2	0.56086266
193	0xbeafba74	-0.3432194
194	0x3f0eeb74	0.5582802
195	0x3b9acc2b	0.0047240457
196	0xbea6df52	-0.32592255
197	0xbef1d761	-0.47234634
198	0x3e0da9b8	0.13834274
199	0xbed502d1	-0.4160371
200	0xbe0a0ff7	-0.13482653
201	0x3eaa3a56	0.33247632
202	0xbed8db4d	-0.42354813
203	0x3df53e82	0.11974813
204	0x3e48c35c	0.19605774
205	0xbe8e780e	-0.2782597
206	0xbe310204	-0.17285925
207	0xbea6760e	-0.32511944
208	0xbea63735	-0.32463995
209	0xbef36dfe	-0.47544855
210	0xbed65ed8	-0.41869235
211	0x3e8aeb3b	0.27132592
212	0x3e10ecca	0.14152828
213	0xbf00b127	-0.50270313
214	0xbea457ff	-0.32098386
215	0x3e9874a2	0.29776484
216	0xbe1885e4	-0.14894825
217	0x3e4f50c7	0.20245658
218	0xbe87b936	-0.26508492
219	0xbf0215ce	-0.5081452
220	0x3e483a26	0.19553432
221	0xbe4dea63	-0.20108943
222	0x3e810d94	0.25205672
223	0xbece0164	-0.40235436
224	0x3e991706	0.29900378
225	0xbeb88562	-0.36039263
226	0xbec25028	-0.3795178
227	0xbcad3d98	-0.021147534
228	0xbe68b55a	-0.2272543
229	0x3ebe7cdf	0.37204644
230	0xbf0bf4cc	-0.54670405
231	0xbdba8f92	-0.09109415
232	0xbed3135c	-0.41225708
233	0x3daeb1d8	0.08530015
234	0x3f0fbb23	0.5614492
235	0x3eb81103	0.3595048
236	0xbf0bea90	-0.5465479
237	0x3f07b67d	0.5301283
238	0xbda1d6e0	-0.07902312
239	0x3efee366	0.49782866
240	0x3ec9841b	0.393586
241	0xbebe37d3	-0.37151965
242	0xbeae62bb	-0.340597
243	0x3d5f0558	0.054448456
244	0x3d1f998e	0.0389648
245	0xbd5cee7a	-0.053938366
246	0x3eef8629	0.46782044
247	0x3e9bfaa7	0.3046467
248	0x3ec8d607	0.3922579
249	0xbeadac28	-0.33920407
250	0xbf064d8e	-0.5246209
251	0x3f01c1ec	0.50686526
252	0x3edc2a38	0.4300096
253	0x3c057bf7	0.008147231
254	0x3eb022c7	0.34401533
255	0x3eb1cb4e	0.34725422

net.0.bias f4 [150]
0	0xbe30b80c	-0.17257708
1	0xbedf7399	-0.43642882
2	0x3dcc6f1b	0.09982129
3	0xbd8fc540	-0.07020044
4	0xbeadb490	-0.3392682
5	0x3e86770a	0.26262695
6	0x3f062365	0.5239776
7	0xbe0c4847	-0.13699447
8	0xbf0c7624	-0.5486777
9	0x3efad2bb	0.489889
10	0x3e219c75	0.1578234
11	0x3ed27017	0.41101143
12	0x3f07ce19	0.53048855
13	0xbeee741f	-0.46572968
14	0x3c5b4120	0.013382226
15	0xbe883ffe	-0.26611322
16	0xbf032c49	-0.5123945
17	0x3ec0d137	0.37659618
18	0x3e3ad3f8	0.18244922
19	0x3ca7c27d	0.020478481
20	0x3e069f62	0.13146737
21	0x3f160877	0.58606666
22	0x3ca794cc	0.020456694
23	0x3ea392f6	0.3194806
24	0x3e87cf60	0.26525402
25	0x3e74474c	0.23855323
26	0x3edcfc53	0.43161258
27	0xbeaac5c4	-0.33354008
28	0xbe538082	-0.2065449
29	0xbcbd0d9a	-0.023077775
30	0x3edab30a	0.4271472
31	0xbed8bd31	-0.42331842
32	0x3f0e76d1	0.5565005
33	0x3d889dc5	0.06670717
34	0x3eb764f1	0.358192
35	0x3eb71b32	0.35762936
36	0xbe85cedc	-0.26134384
37	0xbf0b3343	-0.54375094
38	0xbee1cf9d	-0.4410371
39	0xbe9a3052	-0.3011499
40	0x3e9455fd	0.28971854
41	0xbee3a89b	-0.44464573
42	0xbf0006bb	-0.5001027
43	0x3e4f7081	0.2025776
44	0x3e517455	0.20454533
45	0x3e5c1ca8	0.21495306
46	0xbb70c711	-0.0036739747
47	0x3ecaff26	0.39647788
48	0xbebfbdae	-0.37449402
49	0xbeb99ca9	-0.36252335
50	0x3e5515fc	0.20809168
51	0xbd91eeec	-0.07125649
52	0x3ec36ddc	0.38169754
53	0xbe52a43b	-0.20570461
54	0x3db13942	0.08653499
55	0xbf0feeb8	-0.5622363
56	0x3da373ae	0.079810485
57	0xbd789ff6	-0.060699426
58	0x3e91effc	0.28503406
59	0x3ef8b8d0	0.485785
60	0xbea48077	-0.3212926
61	0x3f0b0232	0.54300225
62	0x3e8552da	0.26039773
63	0x3df2af46	0.11849837
64	0x3d86442b	0.06555971
65	0xbee23d96	-0.4418761
66	0x3ee386f2	0.44438893
67	0x3ecbcf88	0.3980677
68	0x3e81976e	0.25310844
69	0x3ef0fe2a	0.47068912
70	0x3ef2d6a1	0.47429374
71	0x3ca86c65	0.020559499
72	0xbf081eb7	-0.5317187
73	0xbf017d2f	-0.5058164
74	0x3ed0763d	0.4071521
75	0xbe6f9038	-0.23394859
76	0xbea12c0c	-0.31478918
77	0x3ea7d7f2	0.3278194
78	0xbe5ce011	-0.2156985
79	0xbe8c76fe	-0.27434534
80	0x3e4384ea	0.19093671
81	0x3f0cda38	0.55020475
82	0xbeae651c	-0.34061515
83	0x3d8b0066	0.06787185
84	0xbe0da363	-0.13831858
85	0x3f035103	0.5129549
86	0x3ed5f1d5	0.41786066
87	0xbdbb4c4e	-0.09145413
88	0x3ca0c367	0.019624425
89	0x3e1efe8f	0.15526794
90	0xbf042627	-0.51620716
91	0xbec236a0	-0.379323
92	0x3e82ebf6	0.2557065
93	0x3eca0325	0.39455524
94	0x3e464280	0.19361305
95	0xbe7b5dc8	-0.24547493
96	0x3e820613	0.2539526
97	0x3ed1bb28	0.409631
98	0x3ea5ccce	0.32382816
99	0x3e718385	0.23585327
100	0x3ed00f8d	0.40636864
101	0x3ee8a61b	0.45439228
102	0x3cd9cb2b	0.026586136
103	0xbe652e6c	-0.2238099
104	0x3e84afb3	0.25915298
105	0xbe5f8e63	-0.2183166
106	0x3e6d71ae	0.23187897
107	0xbe909f53	-0.28246555
108	0xbe899ca8	-0.26877332
109	0xbf10fb85	-0.5663379
110	0xbd32bd15	-0.043637354
111	0xbefef8e0	-0.49799252
112	0xbd094f87	-0.03352311
113	0xbea65eb9	-0.32494143
114	0xbd375e66	-0.04476776
115	0x3f07ea30	0.53091717
116	0x3f04b2ab	0.51835126
117	0x373e5a00	1.1345837e-05
118	0x3ed68fea	0.41906673
119	0x3bf7ce12	0.0075624073
120	0x3ef9336d	0.48672047
121	0x3e9bac30	0.30404806
122	0x3d461a83	0.048365127
123	0x3f07a9e7	0.52993625
124	0xbe1d29e7	-0.15348016
125	0xbdaedc08	-0.085380614
126	0xbec1bc3e	-0.3783893
127	0xbe3a9713	-0.18221693
128	0xbe3aa6cc	-0.1822769
129	0xbea60e0a	-0.32432586
130	0x3ed5483a	0.41656667
131	0x3d44a133	0.048005294
132	0x3f08a557	0.5337729
133	0x3f06febc	0.52732444
134	0x3f09ad8b	0.5378043
135	0x3ef0a235	0.46998754
136	0xbd412c86	-0.0471616
137	0x3eea8e38	0.4581163
138	0x3e649492	0.223223
139	0xbe546162	-0.20740274
140	0x3eb20a05	0.3477327
141	0xbf006a80	-0.50162506
142	0xbed57f98	-0.4169891
143	0xbe9e3c03	-0.3090516
144	0x3e768e67	0.2407776
145	0x3f138e57	0.5763907
146	0xbb5f152e	-0.0034039724
147	0x3e71b802	0.2360535
148	0x3cffe00e	0.031234767
149	0x3f1ee465	0.6206725

net.2.weight f4 [64, 150]
0	0xbd4eaef1	-0.050459806
1	0x3d30e8d9	0.04319081
2	0x3c066445	0.008202617
3	0x3c86e69a	0.016467381
4	0x3c2af3b0	0.010434076
5	0xbd98fb5a	-0.074698165
6	0xbd94ff25	-0.072752275
7	0x3d86b0a9	0.06576664
8	0x3d050898	0.0324789
9	0x3d6fac0c	0.058513686
10	0xbd9c4bf7	-0.07631677
11	0xbd962be9	-0.07332594
12	0xbcc55fba	-0.024093498
13	0x3d53d898	0.05172023
14	0x3bebf3d9	0.0072006998
15	0xbd09bdc0	-0.033628225
16	0x3d943383	0.072363876
17	0xbd7762de	-0.06039702
18	0xbd561585	-0.052266616
19	0xbd2dbd17	-0.04241666
20	0xbdb64703	-0.08900263
21	0xbd1a9481	-0.03773928
22	0xbcc683c1	-0.024232747
23	0xbd40648c	-0.04697089
24	0xbcb0e648	-0.021594182
25	0xbdb971e0	-0.09054923
26	0x3d8eddfd	0.06975935
27	0x3cfb4df9	0.030676829
28	0xbd84bfc7	-0.06481891
29	0xbd938e6a	-0.07204898
30	0xbd914728	-0.0709365
31	0xbca6cb14	-0.020360507
32	0x3ce112df	0.027474819
33	0x3d8d0656	0.06885974
34	0x3cfa71d9	0.030571865
35	0xbc654002	-0.013992311
36	0x3d0b09af	0.033944782
37	0xbd9a3810	-0.07530224
38	0xbc284d8c	-0.010272395
39	0x3d941b23	0.072317384
40	0xbcad03c3	-0.021119958
41	0xbd5c5e36	-0.053800784
42	0x3cbd0f92	0.023078714
43	0xbc9ca24d	-0.01912036
44	0x3bf4915e	0.007463618
45	0xbd4a7e6e	-0.04943698
46	0x3c31b0fc	0.010845419
47	0xbd94d415	-0.07267014
48	0x3da67d2b	0.08129343
49	0x3d2926c5	0.04129674
50	0x3d52bfb5	0.051452357
51	0x3d5b03a9	0.053470287
52	0x3d42070b	0.047369998
53	0x3d2293d3	0.039691757
54	0xbd302217	-0.04300126
55	0x3d6218e2	0.05519951
56	0x3d9b340c	0.075782865
57	0xbd978ae3	-0.073995374
58	0x3d004020	0.031311154
59	0x3d2020c0	0.039093733
60	0x3d9806c0	0.074231625
61	0x3da0089a	0.078141406
62	0xbdb62cae	-0.08895241
63	0xbd002d7d	-0.03129338
64	0xbda32f60	-0.079680204
65	0x3d51f3bd	0.051257838
66	0xbd5eead1	-0.054423157
67	0xbd211700	-0.039328575
68	0x3c62241a	0.013802553
69	0xbd9b2ede	-0.075772986
70	0xbd8f97b1	-0.07011355
71	0x3d657981	0.05602408
72	0xbd93a226	-0.07208662
73	0xbd8fa40c	-0.07013711
74	0x3bd85c95	0.0066028335
75	0xbd639733	-0.055564117
76	0x3d1b7e57	0.037962284
77	0xbd4fa8d9	-0.050698135
78	0x3bc3b54f	0.0059725414
79	0x3d65c83c	0.05609916
80	0x3d816cf7	0.063196115
81	0xbd447782	-0.047965534
82	0xbd214582	-0.03937293
83	0x3d5c255d	0.05374657
84	0xbd3fc403	-0.04681779
85	0x3d73a1c9	0.059480462
86	0xbccdd578	-0.025126204
87	0xbd8f28e4	-0.06990221
88	0x3cde6713	0.027148759
89	0x3ca3c46b	0.01999112
90	0xbce806ed	-0.028323615
91	0x3d2a9c3b	0.0416529
92	0x3d525ed5	0.05135997
93	0x3be1adc1	0.006887168
94	0x3d3865bb	0.045018893
95	0x3d82a5c5	0.06379274
96	0x3cc36c77	0.023855431
97	0x3d222d41	0.03959394
98	0x3d684dbf	0.05671477
99	0x3cf820ec	0.030289136
100	0xbd674284	-0.05645992
101	0xbd17284e	-0.036903672
102	0xbcb24b72	-0.02176449
103	0x3ca37af7	0.019956095
104	0x3d5f8412	0.05456931
105	0xbcabe230	-0.020981878
106	0xbd517445	-0.051136274
107	0x3d2d016b	0.04223768
108	0xbd8608aa	-0.06544621
109	0x3d049470	0.032368124
110	0x3d35519f	0.044267293
111	0xbccf2645	-0.025286803
112	0xbc1931d8	-0.009350263
113	0xbd7dce85	-0.06196453
114	0x3aef569b	0.0018260063
115	0xba9d23f7	-0.0011988868
116	0xbc2c7004	-0.0105247535
117	0x3cfcc122	0.030853812
118	0x3cd05ee0	0.025435865
119	0xbd7a1f5d	-0.061065067
120	0x3d06539f	0.03279459
121	0xbd1bd445	-0.038044233
122	0xbda36c9d	-0.07979701
123	0xbbf3eb1e	-0.0074437996
124	0x3cd9afb8	0.026573047
125	0xbd086243	-0.033296835
126	0x3b89d9e2	0.004206882
127	0xbdb9c15c	-0.090700835
128	0xbd873c94	-0.06603351
129	0xbda02265	-0.0781906
130	0xbd9f9c9b	-0.07793542
131	0x3da2558d	0.07926474
132	0xbd75555f	-0.05989587
133	0xbd3837ee	-0.044975214
134	0x3c88d6c2	0.016703967
135	0x3d8ba9ea	0.06819518
136	0x3d09a8ce	0.03360825
137	0xbd54abab	-0.051921528
138	0xbcdfdfe5	-0.02732844
139	0xbd14c990	-0.036325037
140	0xbda256fc	-0.07926747
141	0x3d994568	0.07483941
142	0xbb9749b3	-0.00461694
143	0x3d419214	0.04725845
144	0x3c229427	0.009923018
145	0xbd158c65	-0.036510844
146	0x3d7eda8a	0.062220134
147	0x3d448806	0.047981285
148	0xbdbbda23	-0.09172466
149	0x3b400ca2	0.0029304405
150	0xbc9e733a	-0.019342054
151	0x3d860227	0.06543379
152	0xbcecb490	-0.028894693
153	0x3d58e4b0	0.05295247
154	0x3c6cd2d5	0.014454563
155	0xbcbe1013	-0.023201024
156	0xbd12a05c	-0.035797462
157	0xbca217bf	-0.019786714
158	0xbd143cf2	-0.036190934
159	0xbcf2a3e6	-0.029619168
160	0xbd23ec72	-0.040020414
161	0x3d03e5bf	0.032201525
162	0x3d28c275	0.041201074
163	0x3d1f91e8	0.038957506
164	0x3d267e5c	0.04064785
165	0x3cabebb3	0.020986414
166	0x3d116449	0.03549603
167	0xbcfdaa43	-0.030964976
168	0xbd618c7f	-0.05506563
169	0x3c9e5586	0.01932789
170	0x3c82688c	0.015918992
171	0x3d91c112	0.07116903
172	0xbd8c14b7	-0.068398885
173	0xbbc40965	-0.005982565
174	0x3d8e5ef6	0.06951706
175	0x3cb8c13d	0.02255308
176	0xbb51aec6	-0.0031995042
177	0xbbb5c3fb	-0.0055470443
178	0xbcd85bfd	-0.02641105
179	0x3d8b9876	0.06816189
180	0xbd8e41c1	-0.06946135
181	0x3d9a7702	0.0754223
182	0x3cfdafdb	0.030967643
183	0xbd8d568c	-0.06901273
184	0xbd5c04de	-0.05371558
185	0x3da40408	0.080085814
186	0xbd76b476	-0.060230695
187	0xbd7a2361	-0.061068896
188	0x3d4e6514	0.050389364
189	0x3d9ca8a8	0.07649356
190	0xbd83f150	-0.06442511
191	0xbda54990	-0.080706716
192	0xbd8c1b35	-0.06841127
193	0xbda71606	-0.081584975
194	0x3cfa9eb1	0.030593248
195	0x3d953cf7	0.07287019
196	0x3d6e66b7	0.058203425
197	0x3c92834e	0.017884877
198	0xbda2063f	-0.079113476
199	0xb9fae4e4	-0.00047854253
200	0xbd30fff8	-0.04321286
201	0x3d4a94ed	0.049458433
202	0xbd4c0d3d	-0.049817313
203	0xbd34d56b	-0.044148844
204	0xbc11cf88	-0.008899577
205	0x3c5b20bf	0.0133745065
206	0xbd06aa56	-0.03287729
207	0x3d4fc2e3	0.050722968
208	0x3ca660d5	0.020309845
209	0x3c8683e8	0.01642032
210	0x3d45f999	0.048333738
211	0xbcf709c9	-0.030156033
212	0x3d6cfcb8	0.0578582
213	0xbd3ae7b9	-0.045631144
214	0x3ce97b10	0.028501064
215	0x3cb247db	0.021762779
216	0x3d52426b	0.051332872
217	0x3c52fccd	0.012877655
218	0xbd8148d4	-0.06312719
219	0x3d4c5cfd	0.049893368
220	0x3d9b6c86	0.075890586
221	0xbcd2230b	-0.025651475
222	0x3d842d98	0.06454009
223	0x3d5e8af0	0.05433172
224	0xbc69fb17	-0.014281056
225	0x3ac5cb33	0.0015090465
226	0xbd0d033c	-0.034426913
227	0xbd6a90af	-0.057266887
228	0xbd437d6f	-0.047727045
229	0xbcf65586	-0.030070078
230	0x3d0c26fc	0.034216866
231	0x3bbab25d	0.005697532
232	0x3d6b9d7e	0.057523243
233	0x3d80487d	0.06263826
234	0xbd6f07aa	-0.05835692
235	0xbc85850a	-0.01629879
236	0xbd0fd639	-0.035116408
237	0xbd97eca1	-0.0741818
238	0xbc97be1d	-0.01852327
239	0xbd85ddbb	-0.06536432
240	0x3d3975fe	0.04527854
241	0x3d886f3d	0.06661842
242	0xbcaec12d	-0.021332348
243	0xbda18af0	-0.07887828
244	0x3ca8a857	0.020588083
245	0xbd7454af	-0.059651073
246	0xbccfc3bb	-0.025361886
247	0xbbaa7517	-0.0052019465
248	0x3d57cd3b	0.052685957
249	0xbd159750	-0.036521256
250	0xbc6bfa42	-0.014402928
251	0xbd794ab1	-0.060862247
252	0xbd2b3f75	-0.041808564
253	0x3c94fcb3	0.018186903
254	0xbd672f64	-0.05644168
255	0xbd221ac7	-0.039576318

net.2.bias f4 [64]
0	0x3d5d2800	0.053993225
1	0xbcbf596e	-0.023358073
2	0xbc24e417	-0.0100641465
3	0x3d25e61c	0.040502653
4	0x3d999f8c	0.07501134
5	0xbd19c41a	-0.037540533
6	0xbce4ecb0	-0.027944893
7	0xbd2a2d65	-0.041547198
8	0xbcd8bfa5	-0.02645857
9	0xbc0b647d	-0.008507845
10	0xbb15a1dd	-0.0022832074
11	0x3d817452	0.063210145
12	0x3d1b70fd	0.03794955
13	0x3d8ba0e6	0.06817798
14	0x3d62459b	0.055242162
15	0xbdab1d77	-0.08355229
16	0xbd51b3b9	-0.051196788
17	0xbd90efeb	-0.07077011
18	0x3d11371f	0.03545296
19	0xbd89f322	-0.06735827
20	0x3d33ece7	0.0439271
21	0x3c99ec84	0.018789537
22	0xbd8de8c3	-0.069291614
23	0xbd026bb2	-0.031840988
24	0x3d66bdd0	0.056333363
25	0x3ce3005f	0.027710138
26	0x3bc890ec	0.0061207917
27	0x3ce8d4fe	0.028421875
28	0x3d34c32e	0.04413145
29	0x3db1b5e5	0.08677272
30	0x3d3850a7	0.04499879
31	0x3d553b5c	0.052058563
32	0x3c9ab484	0.018884905
33	0xbd958852	-0.07301392
34	0x3c9b885a	0.018985916
35	0xbd36188f	-0.044457015
36	0xbd8e8282	-0.06958486
37	0x3d87a3c5	0.066230334
38	0x3d01891b	0.031624895
39	0x3d0fe67b	0.035131913
40	0x3d56ee30	0.052473247
41	0xba5e7ae2	-0.0008486939
42	0xbd457ca1	-0.04821456
43	0x3af12ada	0.0018399612
44	0x3d48cef8	0.049025506
45	0xbd39ab9e	-0.045329683
46	0xbda246e8	-0.079236805
47	0xbd4c2ec0	-0.04984927
48	0x3c882d54	0.016623177
49	0x3d6608ee	0.05616086
50	0x3d39eccd	0.045391846
51	0x3cb858a9	0.022503214
52	0xbb8036ad	-0.003912768
53	0x3d772984	0.060342327
54	0xbcdf0bd6	-0.027227324
55	0xbca28e46	-0.019843232
56	0xbd2cd100	-0.042191505
57	0x3d8c4dca	0.068507746
58	0x3d8d3c25	0.06896237
59	0xbc28408d	-0.010269296
60	0xbda4d573	-0.08048525
61	0x3d4ac956	0.049508415
62	0x3d140858	0.03614077
63	0x3cdceb46	0.026967656

net.4.weight f4 [3, 64]
0	0x3da4437e	0.080206856
1	0x3ddf5a0e	0.109058484
2	0xbdbad73e	-0.091230854
3	0x3d8873e0	0.066627264
4	0xbde0e60a	-0.109813765
5	0xbc7fde5b	-0.0156169785
6	0x3d60991c	0.054833516
7	0xbc5f2938	-0.013620667
8	0xbdfaa34e	-0.12238179
9	0x3de531d4	0.111911446
10	0x3c4b7c56	0.012419781
11	0x3d849d18	0.06475276
12	0x3d23afa2	0.03996242
13	0xbd8eb0fc	-0.06967351
14	0x3dcdd904	0.10051158
15	0xbd35f994	-0.04442747
16	0xbda83a0c	-0.082141966
17	0x3ad1d973	0.001601024
18	0xbdd4328c	-0.103612036
19	0x3d4d58ac	0.050133392
20	0xbd52ed93	-0.0514961
21	0xbdcd696e	-0.10029875
22	0xbcd2a778	-0.025714621
23	0xbd0165e8	-0.031591326
24	0xbdeb95d8	-0.1150319
25	0xbdfe8373	-0.12427416
26	0xbded5468	-0.11588365
27	0x3cdb3d21	0.026762547
28	0xbd8563e5	-0.06513194
29	0xbdeb9e16	-0.11504762
30	0x3da10631	0.07862509
31	0xbc9a4f82	-0.01883674
32	0xbd72c302	-0.059268005
33	0xbc86203f	-0.016372798
34	0xbdbdd410	-0.09268963
35	0x3d86010b	0.06543168
36	0x3d457984	0.04821159
37	0x3cba1cf6	0.022718888
38	0xbd47ac64	-0.04874839
39	0x3bf74e20	0.007547155
40	0x3d925526	0.07145147
41	0xbdc334a6	-0.09531526
42	0x3da4e91d	0.08052275
43	0xbddf7a3e	-0.10911988
44	0x3d53bf46	0.051696084
45	0xbdedf010	-0.11618054
46	0x3dcac0dd	0.09900067
47	0xbca2d6a8	-0.019877747
48	0xbcaccfeb	-0.021095237
49	0x3c769f60	0.015052646
50	0xbcacded7	-0.021102352
51	0xbdd4fc4f	-0.103996865
52	0xbd841276	-0.06448834
53	0xbd320ed4	-0.043471172
54	0x3da8512b	0.082186066
55	0x3d69dd2c	0.05709569
56	0xbdd72bfc	-0.10506436
57	0xbccc422e	-0.0249339
58	0xbd74257f	-0.05960607
59	0x3d08556c	0.03328459
60	0xbd5ee700	-0.054419518
61	0x3cc4a6d8	0.024005339
62	0x3dd8abdf	0.10579657
63	0xbd672f6c	-0.05644171
64	0x3cb49f17	0.022048516
65	0x3dfbccba	0.12294908
66	0xbd7881cd	-0.060670663
67	0xbd8722f0	-0.06598461
68	0x3ccf517b	0.025307408
69	0x3dbb5d7b	0.09148689
70	0x3dbcc22f	0.09216725
71	0x3e018a28	0.12650359
72	0xbdae1b7e	-0.085013375
73	0x3df7bb7e	0.12096308
74	0xbe0304bd	-0.12794776
75	0xbbeb9980	-0.0071899295
76	0xbbf27720	-0.0073994547
77	0x3cdee6f6	0.02720974
78	0xbc8a5dce	-0.016890433
79	0x3d7bd10c	0.06147866
80	0xbd432eb4	-0.04765196
81	0xbd9ee955	-0.07759348
82	0x3d6b092c	0.057381794
83	0xbd52e67c	-0.05148934
84	0x3d017640	0.031606913
85	0xbdfd3286	-0.12363152
86	0x3dc6686a	0.09687884
87	0x3d153d58	0.036435455
88	0xbdda7f3c	-0.10668799
89	0xbdb472a9	-0.08810932
90	0xbddbeb45	-0.107382335
91	0x3dd72565	0.10505179
92	0xbced52f6	-0.028970223
93	0xbd768b46	-0.060191415
94	0x3e4134e7	0.18867837
95	0xbd6ca341	-0.05777288
96	0x3cddd574	0.027079321
97	0xbd464520	-0.048405766
98	0x3da5192d	0.080614425
99	0x3b59b4b3	0.0033219277
100	0xbd327634	-0.04356976
101	0x3d9184a6	0.07105379
102	0x3cfbd28c	0.030740045
103	0xbdb9032c	-0.09033808
104	0xbd18b334	-0.037280276
105	0xbd573e54	-0.052549675
106	0x3d864b50	0.065573335
107	0xbdf8d9ce	-0.12150918
108	0x3ddeda5b	0.10881492
109	0x3dd3daaa	0.10344441
110	0x3d91515b	0.070955954
111	0x3d0f3aa0	0.03496802
112	0xbcff21a3	-0.031143969
113	0xbd63f425	-0.055652756
114	0x3dc59913	0.09648337
115	0xbdec288f	-0.115311734
116	0xbcb52860	-0.022113979
117	0x3dc2a6ad	0.09504447
118	0xbdcf471c	-0.10120985
119	0x3db1eeda	0.086881354
120	0x3da3e7de	0.080032095
121	0x3e2e108a	0.16998497
122	0x3dd9927a	0.10623641
123	0x3d9f0510	0.077646375
124	0xbd875c1e	-0.06609367
125	0xbcfae1e0	-0.030625284
126	0x3d3e7a31	0.04650325
127	0xbcf19f12	-0.029494796
128	0x3dabe5d6	0.08393447
129	0xbd9a1d4c	-0.07525119
130	0xbda5fd39	-0.08104939
131	0xbc5dfa5b	-0.013548459
132	0x3dc78201	0.09741593
133	0xbd3d9760	-0.04628694
134	0x39e87400	0.00044336915
135	0x3e225a06	0.15854654
136	0xbdc51459	-0.09623022
137	0xbd25ab6c	-0.040446684
138	0xbdd465ff	-0.10371017
139	0x3d57f798	0.05272636
140	0x3d9354cb	0.07193907
141	0x3d1c66db	0.038184028
142	0xbd83b7a7	-0.06431513
143	0x3d94f230	0.07272756
144	0x3deb7132	0.114962
145	0xbd544eb2	-0.051832862
146	0xbda85736	-0.08219759
147	0x3d09d280	0.033648014
148	0xbcafd5e2	-0.021464292
149	0xbd66dff8	-0.056365937
150	0x3ddd9dbc	0.10821101
151	0xbd03b1de	-0.03215205
152	0x3df3412f	0.11877667
153	0xbc856c5e	-0.016287025
154	0x3dd28192	0.1027862
155	0xbdcd9d68	-0.100397885
156	0xbcb9a5f9	-0.02266215
157	0x3d8a9bae	0.06767975
158	0x3e201f3a	0.15636912
159	0x3d8bf243	0.06833317
160	0x3d5d4321	0.054019097
161	0x3d679524	0.056538716
162	0xbccfb4b0	-0.025354713
163	0x3cebb7fa	0.02877425
164	0xbde7b05e	-0.11312936
165	0xbd5e0a4b	-0.054209035
166	0xbdb1fa88	-0.08690363
167	0x3ce22dab	0.027609667
168	0xbd6b2d58	-0.05741629
169	0xbd03b69c	-0.03215657
170	0x3e0af13f	0.1356859
171	0xbd3d5637	-0.0462248
172	0xbd1cec4a	-0.03831128
173	0x3ca95dd0	0.020674616
174	0xbccab781	-0.024745705
175	0x3d8a3275	0.06747905
176	0xbdc6d8d9	-0.09709329
177	0xbd246f6c	-0.040145323
178	0x3cd56e1c	0.02605348
179	0x3ca71242	0.020394448
180	0x3dd1d328	0.10245353
181	0xbd8a5ea0	-0.067563295
182	0xbe3d2cf2	-0.18474177
183	0xbcf6d2ce	-0.030129816
184	0x3cc4f078	0.024040446
185	0x3df00383	0.1171942
186	0xbe0947da	-0.13406315
187	0x3d80e4dc	0.062936515
188	0x3dab93ba	0.08377786
189	0xbd593060	-0.05302465
190	0x3d9e6f10	0.07736027
191	0xbcaf6e28	-0.021414831

net.4.bias f4 [3]
0	0x3d9a81f6	0.07544319
1	0x3d63808f	0.055542525
2	0x3db16e47	0.08663612
